models/2-layer-cnn.ckpt (torch_old, 118868 bytes, 14 tensors)

layer1.0.weight f4 [16, 1, 5, 5]
0.0764833 0.14109297 0.039299764 -0.06862525 -0.016931422 -0.26638737 -0.047665242 0.05692713
0.20492557 0.15252349 0.19277874 -0.2552424 -0.4256098 -0.27451402 -0.14122684 0.28155783
0.4870772 0.21101011 0.06522939 -0.19054392 -0.3320404 -0.2587435 0.09695706 0.17879431
0.06509125 0.013004245 0.026656225 -0.4809223 0.31791645 0.19360603 0.010400536 -0.21772563
-0.13162906 0.1958445 0.19562303 -0.122592255 -0.08135031 0.3165138 0.104612105 -0.10344999
0.096532896 0.3525318 0.04772645 -0.060266744 -0.24690673 0.13003945 0.25269106 -0.31725276
0.04680638 -0.2669389 -0.26769513 0.22955137 0.10164919 -0.11747292 0.098412655 0.1456378
0.33714455 -0.36733493 -0.05986548 -0.03629972 0.3577617 -0.24836238 0.04490091 -0.1471524
0.070198014 0.08632162 -0.2840358 0.18358311 0.20495975 -0.14762044 0.03415304 -0.26768288
-0.18097943 0.27585948 0.100814454 -0.3277186 0.023414684 0.20932592 0.19505638 0.20915185
-0.04795038 0.165232 -0.08802176 -0.004637044 0.10948173 -0.18305027 -0.22537419 -0.07942776
0.19866318 0.09862667 0.3488818 0.13405526 -0.05440179 -0.40692046 -0.29472852 -0.02964287
0.07023937 -0.43329427 -0.3886357 -0.18074782 -0.004951395 0.07223507 0.114138804 -0.45717368
-0.33660695 0.17309485 -0.09291455 0.19548528 0.015328115 -0.06542365 0.09935903 0.044209037
0.17010301 0.053820908 -0.01793234 -0.11294324 -0.1967596 0.062453058 0.42386886 0.025734005
-0.18096115 -0.48089215 -0.18669973 0.30037597 0.018579826 -0.12329082 0.10642977 0.061778106
-0.0074636983 -0.0040761335 -0.114603795 0.33307907 -0.2897957 0.10945118 -0.07074352 -0.028408231
0.40827918 -0.49860707 -0.030447016 0.15479672 0.18734953 0.2012669 -0.4100373 -0.10703081
0.15685183 0.17092702 -0.023355242 -0.116486244 0.083465375 -0.116627626 -0.3457088 -0.2504845
-0.2763766 -0.479836 -0.36664668 0.15314734 0.20132454 0.17055348 -0.3572916 -0.027512636
0.014369042 0.23649146 0.30333588 -0.07721203 0.16030419 0.04377999 0.06851465 -0.005224785
-0.18669596 -0.096129835 0.115117416 -0.12374117 0.1179531 -0.1279386 -0.24176064 -0.09743104
0.069158025 0.22162344 -0.06384402 -0.3687049 -0.021289218 -0.27623042 -0.16840447 0.15688667
-0.026646646 0.32766888 0.21507321 0.0657981 0.25429833 0.1583072 -0.008644407 0.29184854
-0.060109407 -0.3255808 -0.22215344 -0.22580518 0.1245916 -0.07797991 -0.033296898 -0.1288301
-0.11706182 -0.0675202 0.2795867 -0.103147395 0.028697398 -0.11589957 0.13460328 0.2119752
0.13226615 -0.38283914 0.053267814 -0.05378952 0.22949663 0.45814115 0.10762113 -0.17123158
-0.18773137 -0.03693153 0.18791512 0.47411862 -0.17834051 -0.18975581 -0.0027790728 0.22312523
0.04794629 -0.056411203 -0.46027955 0.06940873 0.17941226 0.053192694 -0.22161464 -0.019086061
0.35024756 -0.16995943 0.08862281 -0.13978711 -0.13669327 0.15363017 -0.009246601 0.01704605
0.16433418 0.09401735 -0.1822252 0.0026386231 -0.4091494 -0.14002392 0.23979822 0.19690809
-0.11081091 -0.35378793 -0.16826935 0.26975593 0.081665084 -0.20303318 -0.1136796 -0.049798205
00000000: 47a3 9c3d ad7a 103e caf8 203d 658b 8cbd
00000010: c4b3 8abc ed63 88be a13c 43bd 6c2c 693d
00000020: 02d8 513e 1e2f 1c3e ca67 453e 22af 82be
00000030: 87e9 d9be 1a8d 8cbe c59d 10be 5928 903e
00000040: 2f62 f93e 0913 583e fd96 853d f21d 43be
00000050: 3301 aabe 077a 84be 6c91 c63d db15 373e
00000060: 904e 853d c20f 553c 285e da3c 733b f6be
00000070: f2c5 a23e a940 463e 0267 2a3c 78f3 5ebe
00000080: c5c9 06be 768b 483e 6751 483e a611 fbbd
00000090: fe9a a6bd 190e a23e df3e d63d 97dd d3bd
000000a0: 0ab3 c53d 0c7f b43e cf7c 433d 43da 76bd
000000b0: 1ed5 7cbe 1029 053e b960 813e f46e a2be
000000c0: 0cb8 3f3d 37ac 88be 560f 89be 840f 6b3e
000000d0: 732d d03d a495 f0bd 938c c93d 1322 153e
000000e0: 369e ac3e 5313 bcbe 8135 75bd 04af 14bd
000000f0: 8b2c b73e b552 7ebe 04ea 373d 1eaf 16be
00000100: fac3 8f3d 64c9 b03d 246d 91be 36fd 3b3e
00000110: f8e0 513e d029 17be 0fe4 0b3d bb0d 89be
00000120: ac52 39be 743d 8d3e cf77 ce3d bbca a7be
00000130: 27d0 bf3c 8959 563e dcbc 473e e72b 563e
00000140: 9e67 44bd 9432 293e c144 b4bd 58f2 97bb
00000150: f537 e03d 8871 3bbe 7ec8 66be 05ab a2bd
00000160: 5c6e 4b3e c8fc c93d a3a0 b23e c845 093e
00000170: 69d4 5ebd e157 d0be a8e6 96be 9bd5 f2bc
00000180: a9d9 8f3d bfd8 ddbe 42fb c6be f515 39be
00000190: 503f a2bb fbef 933d 9bc1 e93d ab12 eabe
000001a0: bf57 acbe c73f 313e fc49 bebd 4b2d 483e
000001b0: c622 7b3c d6fc 85bd bf7c cb3d 8914 353d
000001c0: 7c2f 2e3e 5073 5c3d d8e6 92bc c94e e7bd
000001d0: 597b 49be c7ce 7f3d 5705 d93e 1fd0 d23c
000001e0: e14d 39be 7f37 f6be 372e 3fbe e1ca 993e
000001f0: b834 983c e67f fcbd daf7 d93d 0a0b 7d3d
00000200: 0a92 f4bb 1691 85bb 65b5 eabd 5789 aa3e
00000210: 1a60 94be f127 e03d fbe1 90bd 61b8 e8bc
00000220: f809 d13e 6d49 ffbe 056c f9bc 0883 1e3e
00000230: 8ed8 3f3e e918 4e3e 69f0 d1be f832 dbbd
00000240: c49d 203e 7e07 2f3e 7e53 bfbc 5790 eebd
00000250: e5ef aa3d 77da eebd be00 b1be 813f 80be
00000260: 3c81 8dbe 10ad f5be 1db9 bbbe a8d2 1c3e
00000270: 0528 4e3e 92a5 2e3e edee b6be 2e62 e1bc
00000280: 216c 6b3c d12a 723e d74e 9b3e 5721 9ebd
00000290: c826 243e a652 333d 6951 8c3d ac34 abbb
000002a0: 3a2d 3fbe b8df c4bd aec2 eb3d 036c fdbd
000002b0: 6591 f13d 5602 03be 1a90 77be ed89 c7bd
000002c0: b9a2 8d3d 41f1 623e a7c0 82bd e3c6 bcbe
000002d0: ba66 aebc 136e 8dbe 3972 2cbe e6a6 203e
000002e0: 114a dabc 37c4 a73e 273c 5c3e 27c1 863d
000002f0: 6433 823e 481b 223e 45a1 0dbc 2c6d 953e
00000300: 4835 76bd 87b2 a6be 317c 63be 7939 67be
00000310: e129 ff3d eeb3 9fbd 5462 08bd 0aec 03be
00000320: 1cbe efbd 0848 8abd fd25 8f3e f13e d3bd
00000330: ce16 eb3c c15c edbd 71d5 093e 0710 593e
00000340: c770 073e 7e03 c4be 5a2f 5a3d 6652 5cbd
00000350: 2a01 6b3e 7a91 ea3e 7868 dc3d 5557 2fbe
00000360: a73c 40be 8445 17bd d26c 403e adbf f23e
00000370: e59e 36be 594f 42be 1b21 36bb f17a 643e
00000380: 5463 443d 6f0f 67bd c3a9 ebbe 2a26 8e3d
00000390: d9b7 373e 95e0 593d f3ee 62be 5f5a 9cbc
000003a0: a653 b33e d809 2ebe e07f b53d 5a24 0fbe
000003b0: 52f9 0bbe 3a51 1d3e 0e7f 17bc 28a4 8b3c
000003c0: 3847 283e 2b8c c03d 3e99 3abe c0ec 2c3b
000003d0: 087c d1be 6e62 0fbe aa8d 753e 46a2 493e
000003e0: d5f0 e2bd b123 b5be cd4e 2cbe 731d 8a3e
000003f0: 0640 a73d eee7 4fbe dad0 e8bd 34f9 4bbd

layer1.0.bias f4 [16]
0.030051218 -0.03216995 0.130125 -0.14947672 -0.25200745 -0.15451404 0.11924018 -0.1932165
-0.18524605 -0.08277437 0.13561465 -0.09832445 0.14829656 0.12482217 0.24932933 0.10503732
00000000: f92d f63c a3c4 03bd 7d3f 053e 6d10 19be
00000010: 1f07 81be ee38 1ebe 3234 f43d 8cda 45be
00000020: 24b1 3dbe 9c85 a9bd 91de 0a3e 545e c9bd
00000030: 0edb 173e c4a2 ff3d 3050 7f3e ce1d d73d

layer1.1.weight f4 [16]
0.41484112 0.42805624 0.6481159 0.6552912 0.5652277 0.5612768 0.6019194 0.40613446
0.46747684 0.64415497 0.3949296 0.015083754 0.45706105 0.50195813 1.3204147 0.42243063
00000000: 0e66 d43e 302a db3e ecea 253f 2ac1 273f
00000010: c3b2 103f d6af 0f3f 6417 1a3f dbf0 cf3e
00000020: 2059 ef3e 57e7 243f 3634 ca3e da21 773c
00000030: e803 ea3e 5480 003f 5903 a93f d448 d83e

layer1.1.bias f4 [16]
-0.23594284 -0.11092288 -0.10175647 -0.27367225 -0.31790885 -0.023912972 -0.227191 -0.073018804
-0.3681959 -0.19464892 -0.21784656 -0.06259845 -0.0021386861 -0.23242399 -0.55589265 -0.0037050166
00000000: 009b 71be 892b e3bd b265 d0bd c51e 8cbe
00000010: f3c4 a2be 23e5 c3bc c2a4 68be e28a 95bd
00000020: 2c84 bcbe 0c52 47be 2b13 5fbe 9e33 80bd
00000030: 3329 0cbb 8e00 6ebe fb4e 0ebf ddcf 72bb

layer1.1.running_mean f4 [16]
0.029494505 0.052566126 0.17072302 -0.44454837 -0.34695506 -0.14713512 -0.2822161 -0.27060577
0.09954238 -0.31953058 0.15433787 0.3709079 0.14774449 -0.09033708 -0.475816 0.030103978
00000000: 769e f13c 944f 573d 04d2 2e3e d89b e3be
00000010: 18a4 b1be 97aa 16be a17e 90be d78c 8abe
00000020: e0dc cb3d 8399 a3be bf0a 1e3e a4e7 bd3e
00000030: 554a 173e a602 b9bd 289e f3be 9e9c f63c

layer1.1.running_var f4 [16]
0.016032578 0.03412853 0.016921273 0.14513667 0.04608555 0.04389842 0.2438957 0.038893893
0.18250856 0.07343281 0.01342196 0.21879137 0.054294087 0.0957679 0.65665925 0.058164325
00000000: c156 833c 5cca 0b3d 7b9e 8a3c b59e 143e
00000010: 34c4 3c3d d4ce 333d cbbf 793e 344f 1f3d
00000020: 86e3 3a3e f163 963d c8e7 5b3c d80a 603e
00000030: 7a63 5e3d f621 c43d d21a 283f b73d 6e3d

layer2.0.weight f4 [32, 16, 5, 5]
0.028684314 -0.16169226 0.004843975 -0.17637463 -0.22038214 -0.08179515 0.10913959 -0.014908413
-0.1399503 -0.16077524 0.1452184 0.08678175 -0.071319886 -0.04379279 -0.006208901 -0.023680009
0.017679643 0.16470577 0.16623452 0.057645522 0.49284276 0.077253036 -0.13630901 -0.15858835
-0.07286199 0.15746719 0.023040451 -0.1952165 -0.036974378 -0.025224695 -0.039172556 0.2843649
-0.068522125 -0.2231603 -0.1325186 0.17021085 0.29424995 -0.03143162 -0.03242127 -0.16390845
-0.09398966 -0.21060745 0.012514905 -0.14509554 0.23814799 -0.36439854 -0.0541034 0.11363364
0.1006204 0.008232775 0.10334884 0.11152201 0.08736051 -0.13101432 -0.30286548 0.17878592
0.15269296 -0.08616225 -0.11281941 -0.31611612 -0.10725748 -0.15319343 -0.042703312 0.39379194
0.0337955 -0.09446859 0.08519088 0.0775718 0.17653964 0.043607857 0.08119331 -0.04551727
-0.037968136 0.3602451 0.1000819 0.07001957 0.01613702 -0.33942434 0.083995014 0.018052125
-0.1867122 -0.21119988 -0.092005916 -0.016747512 -0.05846039 -0.040802386 -0.075080216 0.0059340945
0.16096514 0.015394375 0.053280205 0.26966864 0.1394654 0.14659755 0.022653062 0.25562605
-0.07463575 -0.07130494 0.21865542 0.011245083 0.18067363 -0.10013359 -0.0832336 -0.14313233
-0.08123601 -0.12942022 -0.2341567 -0.34617192 0.15264621 -0.06856612 -0.3554147 0.00032333416
-0.0873768 -0.03936469 -0.35283694 0.11319186 0.002789299 -0.29039013 -0.0119246 -0.22882086
0.11886963 0.15635662 -0.6560982 -0.24849698 0.14995971 0.14112821 0.13780959 0.048993047
0.04465506 -0.45386335 0.18000178 -0.12269027 -0.012950522 0.0014894425 -0.03622449 -0.20074143
-0.49910498 0.06676623 0.3428004 0.018825479 -0.11203814 -0.30534804 0.122732155 0.34477782
0.12811789 0.14512517 -0.45336393 0.24054517 0.09130878 0.15326183 0.22871208 0.063971415
0.026297126 -0.012744462 -0.011945605 0.009390603 -0.14979471 -0.31017572 -0.09113257 -0.10444706
-0.027610553 -0.16509575 -0.03103383 -0.016872654 -0.2690417 -0.13937974 -0.27838734 0.17352834
0.10536462 -0.1686651 -0.021929 0.050841972 -0.13732032 -0.2806102 -0.09529836 0.26635665
-0.3416059 -0.2814101 0.119265735 0.036802642 0.18734069 -0.33570582 -0.17262842 -0.04054548
-0.12585093 0.115819655 -0.014674476 -0.089201346 0.056622904 -0.17639415 0.021948542 -0.0711479
-0.0918618 -0.057066116 0.037610568 0.22257599 0.013739458 0.20374726 -0.41948357 0.17955165
-0.02342016 -0.0628034 -0.09335385 -0.17899758 -0.30847284 -0.15319148 -0.18678275 -0.019723663
0.01872144 -0.12791085 -0.22650456 -0.080450214 -0.17609994 0.112036355 -0.2583677 -0.17157778
-0.34181312 0.03260139 0.065215476 -0.17388508 -0.15820949 -0.010091315 0.0062781014 -0.039745897
-0.15874714 -0.21853971 -0.1690601 0.027296724 0.04479979 -0.25939575 -0.115979604 -0.021633888
0.07491195 0.020588048 0.020328736 -0.15035282 -0.0024370113 0.21165097 -0.16055518 0.20883594
-0.14000663 0.27391148 0.074251905 -0.040564742 -0.027232254 -0.19450422 -0.24432176 -0.060315106
0.33961165 0.091003954 0.113087505 0.07844045 0.016193474 -0.02201504 0.09957068 0.018035224
00000000: 5efb ea3c a892 25be 35ba 9e3b 8d9b 34be
00000010: dbab 61be 3784 a7bd 9484 df3d 6b42 74bc
00000020: 224f 0fbe 44a2 24be 22b4 143e a1ba b13d
00000030: 2910 92bd 1260 33bd 0974 cbbb 94fc c1bc
00000040: e6d4 903c a1a8 283e 6239 2a3e b61d 6c3d
00000050: e355 fc3e d736 9e3d 9794 0bbe fc64 22be
00000060: ab38 95bd 143f 213e 54bf bc3c d6e6 47be
00000070: 7272 17bd 05a4 cebc 6773 20bd 4798 913e
00000080: 5455 8cbd 2284 64be f5b2 07be c14b 2e3e
00000090: eea7 963e 71be 00bd 2acc 04bd 9ed7 27be
000000a0: a77d c0bd 7ba9 57be 510b 4d3c ed93 14be
000000b0: 11dd 733e 7292 babe 879b 5dbd c1b8 e83d
000000c0: 1112 ce3d c3e2 063c 8ea8 d33d a765 e43d
000000d0: 11ea b23d 9e28 06be 2f11 9bbe a813 373e
000000e0: 8b5b 1c3e d575 b0bd dd0d e7bd f9d9 a1be
000000f0: cfa9 dbbd bdde 1cbe abe9 2ebd 199f c93e
00000100: 266d 0a3d c078 c1bd 8e78 ae3d f7dd 9e3d
00000110: cfc6 343e 279e 323d ae48 a63d 5170 3abd
00000120: 7a84 1bbd 0c72 b83e bdf7 cc3d 6c66 8f3d
00000130: c931 843c 07c9 adbe 9405 ac3d 0de2 933c
00000140: 7c31 3fbe c844 58be 996d bcbd 1432 89bc
00000150: 2974 6fbd 6720 27bd a8c3 99bd cb72 c23b
00000160: 0cd4 243e b038 7c3c 583c 5a3d 0212 8a3e
00000170: 05d0 0e3e ab1d 163e ea92 b93c 6be1 823e
00000180: a1da 98bd 5308 92bd 35e7 5f3e 4c3d 383c
00000190: 8202 393e d712 cdbd 6176 aabd 4891 12be
000001a0: 115f a6bd bc86 04be c6c6 6fbe 723d b1be
000001b0: 4a4f 1c3e 656c 8cbd eaf8 b5be 2d85 a939
000001c0: 9cf2 b2bd df3c 21bd 0ba7 b4be 22d1 e73d
000001d0: accc 363b 04ae 94be 665f 43bc 0450 6abe
000001e0: ec71 f33d f31b 203e 0df6 27bf fe75 7ebe
000001f0: 0a8f 193e ea83 103e f51d 0d3e efac 483d
00000200: 39e8 363d c760 e8be 6352 383e 0945 fbbd
00000210: 6d2e 54bc 6639 c33a 2160 14bd 298f 4dbe
00000220: b08a ffbe bcbc 883d 8983 af3e e437 9a3c
00000230: 4174 e5bd 9456 9cbe ff5a fb3d b886 b03e
00000240: 5631 033e b19b 143e 511f e8be 7951 763e
00000250: 1900 bb3d abf0 1c3e 8033 6a3e 7203 833d
00000260: 126d d73c 26ce 50bc 80b7 43bc 0bdb 193c
00000270: c963 19be 5acf 9ebe b6a3 babd 57e8 d5bd
00000280: 872f e2bc dc0e 29be a93a febc 8538 8abc
00000290: d5bf 89be 90b9 0ebe c988 8ebe 6ab1 313e
000002a0: 68c9 d73d 8bb6 2cbe 72a4 b3bc ac3f 503d
000002b0: b39d 0cbe 24ac 8fbe c92b c3bd e65f 883e
000002c0: f8e6 aebe fc14 90be 9841 f43d 5ebe 163d
000002d0: 3dd6 3f3e a2e1 abbe 81c5 30be 0413 26bd
000002e0: 11df 00be db32 ed3d 376d 70bc 32af b6bd
000002f0: 6bed 673d aba0 34be 6ecd b33c fdb5 91bd
00000300: 0a22 bcbd 29be 69bd 8a0d 1a3d f6ea 633e
00000310: 771b 613c 1fa3 503e 8dc6 d6be 63dc 373e
00000320: a3db bfbc 129f 80bd 4e30 bfbd 244b 37be
00000330: 27f0 9dbe 3ade 1cbe fa43 3fbe 8593 a1bc
00000340: b55d 993c 10fb 02be d0f0 67be 15c3 a4bd
00000350: 8b53 34be 5173 e53d c548 84be 16b2 2fbe
00000360: 2102 afbe 0989 053d b18f 853d ee0e 32be
00000370: ab01 22be 0b56 25bc 88b8 cd3b 98cc 22bd
00000380: 9c8e 22be e0c8 5fbe 171e 2dbe 619d df3c
00000390: fc7f 373d 85cf 84be b786 edbd 8d39 b1bc
000003a0: 706b 993d 44a8 a83c 7388 a63c 17f6 19be
000003b0: 44b6 1fbb 08bb 583e 9468 24be 17d9 553e
000003c0: e65d 0fbe 203e 8c3e 6211 983d 3727 26bd
000003d0: 2d16 dfbc 1d2c 47be 7c2f 7abe f90c 77bd
000003e0: 94e1 ad3e 4860 ba3d 6c9a e73d 63a5 a03d
000003f0: 2da8 843c e358 b4bc b6eb cb3d 9bbe 933c

layer2.0.bias f4 [32]
-0.060201846 -0.0011342602 0.0060665254 -0.018974354 0.07518308 -0.009685959 -0.024958504 0.0785325
-0.0002296679 0.00093253114 0.031198675 -0.15950027 0.009184914 0.0010049558 -0.078743726 0.09221559
0.005634664 0.021527214 0.035669938 -0.046937194 0.09527074 -0.04809876 -0.032853782 -0.075001374
0.1247606 0.046160903 -0.08067548 -0.049214218 -0.043086063 0.07476561 0.002831904 0.05058818
00000000: 3696 76bd 75ab 94ba b4c9 c63b 1b70 9bbc
00000010: 96f9 993d dbb1 1ebc c775 ccbc a6d5 a03d
00000020: 02d3 70b9 1b75 743a 5d94 ff3c 0a54 23be
00000030: 527c 163c b9b8 833a 6444 a1bd 87db bc3d
00000040: fda2 b83b d759 b03c a41a 123d 3741 40bd
00000050: 4e1d c33d 3503 45bd b091 06bd 529a 99bd
00000060: 7c82 ff3d 3713 3d3d 3039 a5bd d994 49bd
00000070: 037b 30bd b61e 993d 7797 393b 8d35 4f3d

layer2.1.weight f4 [32]
0.61314136 0.49896544 0.5935788 0.8723084 0.32630414 0.55063015 0.41349694 0.37555993
0.48422104 0.6355289 0.6689613 0.43688843 0.42427614 0.572932 0.564124 0.47461763
0.6248627 0.53006834 0.5337029 0.5533031 0.5532991 0.4762481 0.42002398 0.57237154
0.4626723 0.6860954 0.48891973 0.3516903 0.7389559 0.42150617 0.37049147 0.5187919
00000000: d5f6 1c3f 6678 ff3e c8f4 173f 9a4f 5f3f
00000010: 5611 a73e 19f6 0c3f dfb5 d33e 6449 c03e
00000020: d2eb f73e 06b2 223f 0c41 2b3f d7af df3e
00000030: b93a d93e acab 123f 6e6a 103f 1501 f33e
00000040: 00f7 1f3f 8fb2 073f c1a0 083f 46a5 0d3f
00000050: 03a5 0d3f cad6 f33e 620d d73e f186 123f
00000060: 62e3 ec3e f3a3 2f3f b053 fa3e c010 b43e
00000070: 372c 3d3f a8cf d73e 0fb1 bd3e 8ccf 043f

layer2.1.bias f4 [32]
-0.3776015 -0.41266844 -0.5003347 -0.52567685 -0.2988452 -0.40235156 -0.20249324 -0.32445142
-0.42927563 -0.38550118 -0.51580524 -0.39457026 -0.30221707 -0.47034016 -0.48386207 -0.38055217
-0.5252207 -0.3152023 -0.45088667 -0.4262853 -0.43206158 -0.37458327 -0.4059839 -0.45471668
-0.28629726 -0.5531409 -0.39739305 -0.28630087 -0.5390723 -0.2912637 -0.3814327 -0.40392736
00000000: fc54 c1be 4749 d3be ef15 00bf c292 06bf
00000010: 3d02 99be 0601 cebe 635a 4fbe 7f1e a6be
00000020: 04ca dbbe 6960 c5be d00b 04bf 1d05 cabe
00000030: 32bc 9abe 6dd0 f0be c5bc f7be bcd7 c2be
00000040: dd74 06bf 3262 a1be 9eda e6be 1142 dabe
00000050: 2d37 ddbe 61c9 bfbe 1fdd cfbe a0d0 e8be
00000060: 8e95 92be a49a 0dbf 1a77 cbbe 0796 92be
00000070: a400 0abf 8420 95be 264b c3be 91cf cebe

layer2.1.running_mean f4 [32]
-2.0243983 0.14656138 -0.03599111 -2.4923446 -0.088998586 -0.33799276 -0.9879879 -0.01956797
-0.65988994 -2.161135 -1.3686694 -1.1642793 -0.49556842 -1.1282125 -0.8236044 -0.9364797
-1.6927853 -0.5348157 -1.2373917 -0.33121932 -0.82903284 0.10499066 0.34068623 -0.19334368
-1.2050931 -1.225888 -1.3703592 -1.3132043 -2.3538303 -1.713681 1.1430324 -1.3289467
00000000: be8f 01c0 3014 163e 6a6b 13bd 9382 1fc0
00000010: e444 b6bd 630d adbe c6ec 7cbf 024d a0bc
00000020: 8cee 28bf 0950 0ac0 8f30 afbf 1b07 95bf
00000030: 25bb fdbe 4469 90bf bdd7 52bf 22bd 6fbf
00000040: 30ad d8bf afe9 08bf da62 9ebf 9495 a9be
00000050: 7f3b 54bf 5805 d73d 6d6e ae3e e3fb 45be
00000060: 7e40 9abf e6e9 9cbf ee67 afbf 1417 a8bf
00000070: 28a5 16c0 e659 dbbf e34e 923f ed1a aabf

layer2.1.running_var f4 [32]
2.1383226 2.440528 3.4092824 4.50217 2.566046 2.598521 2.7733927 1.9414366
1.963272 3.6902938 2.8136723 1.9322604 2.866635 2.4028664 2.264923 3.5545022
1.9368201 2.348529 2.704785 4.0924735 2.6873462 2.2848868 2.0512407 2.1982176
2.9968996 2.0531962 2.6183524 2.2148304 3.835548 2.6404057 3.4168332 1.4510623
00000000: 47da 0840 9c31 1c40 af31 5a40 c711 9040
00000010: 193a 2440 2b4e 2640 447f 3140 ff80 f83f
00000020: 7f4c fb3f c62d 6c40 3513 3440 4f54 f73f
00000030: f376 3740 90c8 1940 80f4 1040 f77c 6340
00000040: b9e9 f73f 4d4e 1640 331b 2d40 8bf5 8240
00000050: 7bfd 2b40 963b 1240 8747 0340 99af 0c40
00000060: 34cd 3f40 9167 0340 1693 2740 c8bf 0d40
00000070: 9e79 7540 68fc 2840 65ad 5a40 69bc b93f

fc.weight f4 [10, 1568]
-0.07270017 -0.040968955 -0.0101657305 -0.2649126 -0.017549425 0.09655771 0.12533335 -0.005087807
0.11925224 -0.117571816 -0.1928536 0.16027093 -0.008695195 -0.008551341 0.004925024 0.050967567
-0.011586599 -0.040117454 0.1545332 -0.12294095 -0.15791802 -0.06263831 0.13483341 0.04813336
-0.19936652 -0.033519357 0.0136955 -0.019274918 -0.37692577 -0.073933505 0.059839252 -0.23669066
-0.08546901 -0.29233298 -0.17844708 -0.20087804 -0.09602944 -0.038188573 0.14355333 -0.2151145
-0.16087602 -0.14140964 0.17195167 -0.09624956 0.0670665 -0.036687396 0.07216643 -0.05007596
-0.08969935 -0.101753615 0.016903747 -0.46060997 0.024598269 0.07155634 0.0018898656 0.11266569
-0.39081493 -0.41795284 -0.21393152 -0.2563989 -0.5554427 0.11961918 -0.22616373 0.021763317
0.06423365 0.0133575285 -0.11288506 -0.07525897 0.13075885 -0.09902481 0.103173584 0.06974357
-0.0021980684 -0.47148412 0.24976856 0.092401214 -0.21197906 0.033190273 -0.037288364 0.18449333
-0.31688794 -0.04063703 -0.013484648 0.118042685 0.010643853 0.004581288 -0.26282662 -0.17238595
0.17923632 0.06580818 -0.14602892 0.16379973 0.16606914 0.07863915 -0.078808956 -0.051015705
-0.15241995 0.21474095 0.13230257 -0.19311883 0.080131896 0.049512327 -0.34266058 -0.17595696
-0.119490534 -0.4072504 -0.00904376 -0.020021936 0.0382278 -0.41242328 -0.26395658 -0.00496859
0.18814735 0.13431996 -0.02670587 0.06674088 -0.117360614 0.24233465 -0.015905233 0.13463311
0.056757204 0.37660494 0.059248913 0.18451725 0.04733504 0.14934774 -0.08670031 -0.12031974
0.0061895605 -0.053239413 -0.049834933 0.18115138 0.10567508 0.04492492 -0.045789607 0.06729609
-0.43876693 -0.03984465 -0.08262531 -0.11803331 -0.059288166 0.1473607 -0.21321946 -0.29703388
0.21053381 0.13483658 0.13171619 0.18330896 -0.18560576 0.04168221 0.1154939 -0.33609125
-0.11455653 -0.07752847 0.22642703 -0.10008089 0.07288934 -0.10975724 -0.10835107 0.050769072
0.23568422 -0.24569337 0.1389549 -0.12896527 -0.08592293 -0.16072485 0.067209736 0.18560965
-0.003847391 0.12593867 0.15605122 0.0424707 -0.0040734312 -0.05710347 0.15230615 0.17060278
-0.13434727 -0.100724995 -0.037028246 0.31507882 0.015891664 -0.22491121 0.0065313717 -0.2184866
0.06818568 0.19886693 0.21671349 -0.09679487 -0.20037045 -0.013942127 -0.2384488 0.21660776
0.287341 -0.0003759616 -0.06788275 -0.24672 0.30463418 0.03531423 0.14326888 -0.05500171
0.106587835 -0.09038176 0.19767028 0.14571233 -0.1555691 0.06420349 0.1923556 -0.03755118
-0.41595954 -0.029489376 -0.0047327494 -0.010874527 0.16087674 0.20159966 -0.0027277896 0.24771452
0.026523773 -0.04160747 -0.20196687 -0.18022117 -0.0045573325 -0.074191004 0.10216704 -0.1278191
-0.10130126 -0.07003293 -0.2916456 0.1494249 -0.12226178 -0.15727304 -0.026142558 -0.28713617
-0.06688757 -0.2640596 -0.1783241 0.031999275 0.29385215 -0.092815086 -0.065136544 -0.18432648
-0.075837955 0.10742519 -0.033368237 0.026024828 0.049585428 0.18699025 0.17888635 -0.015316943
-0.12153244 0.13797459 0.12717608 0.039788414 -0.20420995 -0.033224795 0.023113059 0.22976488
00000000: d4e3 94bd 10cf 27bd 2a8e 26bc a0a2 87be
00000010: d0c3 8fbc 0cc0 c53d 6357 003e 9eb7 a6bb
00000020: 853a f43d 7ec9 f0bd 6a7b 45be 101e 243e
00000030: 4b76 0ebc ec1a 0cbc 1962 a13b 5ec3 503d
00000040: b8d5 3dbc 3352 24bd f43d 1e3e 77c8 fbbd
00000050: 43b5 21be 8448 80bd c511 0a3e 7c27 453d
00000060: bd26 4cbe 984b 09bd 1763 603c 6fe6 9dbc
00000070: 6afc c0be 736a 97bd 011a 753d 095f 72be
00000080: 600a afbd abac 95be d5ba 36be f9b2 4dbe
00000090: 15ab c4bd 9f6b 1cbd a5ff 123e fa46 5cbe
000000a0: afbc 24be b0cd 10be 1914 303e 7d1e c5bd
000000b0: 295a 893d 8645 16bd fecb 933d 731c 4dbd
000000c0: 4bb4 b7bd 3364 d0bd ba79 8a3c 12d5 ebbe
000000d0: 4f82 c93c 218c 923d 5eb5 f73a 45bd e63d
000000e0: e518 c8be eafd d5be dd10 5bbe b746 83be
000000f0: 7e31 0ebf e7fa f43d 7797 67be fc48 b23c
00000100: ef8c 833d 89d9 5a3c 4830 e7bd 6021 9abd
00000110: a6e5 053e 85cd cabd ac4c d33d b8d5 8e3d
00000120: 780d 10bb 5e66 f1be 54c3 7f3e d93c bd3d
00000130: 0a11 59be 86f2 073d afbb 18bd d2eb 3c3e
00000140: 233f a2be 0473 26bd b7ee 5cbc 5dc0 f13d
00000150: 8e63 2e3c a11e 963b 3691 86be f185 30be
00000160: ba89 373e 70c6 863d 9b88 15be 1ebb 273e
00000170: 070e 2a3e 900d a13d 9766 a1bd d8f5 50bd
00000180: fa13 1cbe 0de5 5b3e 537a 073e f1c0 45be
00000190: 311c a43d 70cd 4a3d 3571 afbe 102e 34be
000001a0: 74b7 f4bd 2083 d0be 472c 14bc 0b05 a4bc
000001b0: c194 1c3d 2529 d3be 5125 87be 8ecf a2bb
000001c0: b3a9 403e 2c8b 093e 45c6 dabc 71af 883d
000001d0: c35a f0bd 9326 783e b14b 82bc 43dd 093e
000001e0: 3e7a 683d 5dd2 c03e fdae 723d 17f2 3c3e
000001f0: 63e2 413d 9dee 183e ef8f b1bd 326a f6bd
00000200: ccd1 ca3b 9211 5abd b71f 4cbd bf7f 393e
00000210: 2d6c d83d 3103 383d e28d 3bbd 88d2 893d
00000220: 0fa6 e0be 2534 23bd 7537 a9bd 73bb f1bd
00000230: 26d8 72bd b9e5 163e 3456 5abe d314 98be
00000240: 2d96 573e 9a12 0a3e 9ce0 063e 58b5 3b3e
00000250: 700f 3ebe f7ba 2a3d 1188 ec3d 2714 acbe
00000260: 9d9c eabd 3fc7 9ebd 7ddc 673e 36f7 ccbd
00000270: 0247 953d 67c8 e0bd 2ae7 ddbd 3bf3 4f3d
00000280: 3457 713e 0b97 7bbe 314a 0e3e 790f 04be
00000290: 5cf8 afbd 0e95 24be 42a5 893d 7510 3e3e
000002a0: 8324 7cbb 11f6 003e e4cb 1f3e c2f5 2d3d
000002b0: 6b7a 85bb 54e5 69bd 25f6 1b3e 7fb2 2e3e
000002c0: 5592 09be e848 cebd eeaa 17bd 0352 a13e
000002d0: 3c2f 823c 204f 66be 1e05 d63b f4ba 5fbe
000002e0: efa4 8b3d c6a3 4b3e 24ea 5d3e 643c c6bd
000002f0: e92d 4dbe 856d 64bc ec2b 74be 6dce 5d3e
00000300: 5c1e 933e b61c c5b9 1c06 8bbd 2ba4 7cbe
00000310: 03f9 9b3e a7a5 103d 14b5 123e 7949 61bd
00000320: b94a da3d 121a b9bd 146a 4a3e 9d35 153e
00000330: 824d 1fbe 1f7d 833d def8 443e 44cf 19bd
00000340: a6f8 d4be b493 f1bc 2e15 9bbb 122b 32bc
00000350: dfbc 243e 2470 4e3e b7c4 32bb e0a8 7d3e
00000360: 6248 d93c 986c 2abd 67d0 4ebe e68b 38be
00000370: ad55 95bb 74f1 97bd f43c d13d 03e3 02be
00000380: 0977 cfbd 6d6d 8fbd 9252 95be d702 193e
00000390: 6264 fabd 2f0c 21be eb28 d6bc 8303 93be
000003a0: 5afc 88bd d232 87be 989a 36be ac11 033d
000003b0: ca73 963e d615 bebd 4f66 85bd 15c0 3cbe
000003c0: ee50 9bbd bd01 dc3d 22ad 08bd 0532 d53c
000003d0: 171a 4b3d 5f7a 3f3e fc2d 373e eaf3 7abc
000003e0: 00e6 f8bd 3649 0d3e 723a 023e 2df9 223d
000003f0: 6a1c 51be b916 08bd 9957 bd3c 7c47 6b3e

fc.bias f4 [10]
-0.09695319 -0.11438175 -0.0374517 0.09323502 -0.041374125 -0.09016734 0.064236924 0.14539647
-0.077097625 -0.048081715
00000000: 658f c6bd fb40 eabd f466 19bd 01f2 be3d
00000010: ea77 29bd a8a9 b8bd a68e 833d d0e2 143e
00000020: 5ce5 9dbd 55f1 44bd
